model.pt (torch, 335423 bytes, 10 tensors)

lin_m1.weight f4 [100, 100]
000000 56 64 5f 3d 94 96 79 bd 2a ed 63 3d 44 0d a4 3d
       0.054539047 -0.060934618 0.0556461 0.08010343
000010 5a 33 87 bc f7 71 c1 bc 0b 48 0c bd 02 72 77 3d
       -0.016503979 -0.023613913 -0.034248393 0.06041146
000020 68 04 a8 3d ee dc 47 bd 68 ab 96 bc eb 88 3d 3e
       0.082039654 -0.04879468 -0.01839228 0.18509261
000030 81 8b 09 bc 24 4e 1f bd c6 f1 c4 3c d8 dc 93 3a
       -0.008395077 -0.03889288 0.024041068 0.0011281027
000040 26 83 1f 3e a6 18 a5 bd ef e6 a1 bd d9 bf a9 bd
       0.15577373 -0.08061342 -0.07905375 -0.08288545
000050 e6 89 1c bd 33 8c b1 3d ca 93 43 be b3 b5 47 3d
       -0.038217448 0.08669319 -0.19099346 0.048757266
000060 bf d3 66 3d 34 30 54 3d 6e 14 c2 bd 8d fa f8 ba
       0.05635428 0.051803783 -0.09476553 -0.0018995568
000070 1a 4e 29 bd 5e f5 d3 3c 90 f7 e3 3d 6f 88 93 3d
       -0.04133425 0.025873836 0.11131203 0.07203757
000080 44 cf 1a 3e c6 57 f2 3c 7f 89 c9 3d 08 32 86 3d
       0.15118128 0.02958287 0.098406784 0.065525115
000090 1e 22 1d bd bd 70 f2 ba af 81 ad bd 6e 38 8b 3e
       -0.038362615 -0.0018496733 -0.08472001 0.2719149
0000a0 34 59 eb 3d c4 8b b6 ba 62 7d b9 bd 93 a6 c9 bc
       0.114916235 -0.0013927151 -0.09057118 -0.024615562
0000b0 5d 8a 21 3e f4 cd 46 bd 3b 24 31 bd 70 85 d6 3b
       0.15775438 -0.048536256 -0.043247443 0.0065466687
0000c0 30 9c b0 3c ed 6a b0 3c 7e 93 29 bd a5 c1 b6 3d
       0.021558851 0.021535361 -0.041400425 0.089236535
0000d0 80 c9 07 3e 08 42 19 bd d9 b8 6f 3d de 2f bc 3d
       0.1326046 -0.037416488 0.058525894 0.091888174
0000e0 b5 85 11 3d e4 47 13 3e c1 e4 87 3c eb 60 5e 3d
       0.035527904 0.14382893 0.01658857 0.054291647
0000f0 46 1d f6 3c 7c df a5 bc 70 70 da bd dd 9d 26 bd
       0.030043256 -0.020248167 -0.10665977 -0.040677894
000100 60 d6 2d be 58 11 21 be 53 3d c8 3d e0 27 e5 3c
       -0.16976309 -0.15729272 0.09777322 0.027973115
000110 1f a6 be 3b aa 24 6d bd 25 ae be 3d e0 c6 96 3d
       0.005818143 -0.057896294 0.09310559 0.07362151
000120 ac 7f 58 3d 58 f7 58 3d 30 4f 07 3e e0 91 2e 3d
       0.052856132 0.05297026 0.13213801 0.042619586
000130 26 2f 20 be 13 9a 32 3d 09 e6 21 be 09 a7 21 3d
       -0.15642986 0.043603968 -0.15810408 0.039465938
000140 f7 60 3a bd 8a 52 52 3d 61 f8 96 bc bd 4f 97 bd
       -0.04550263 0.051348247 -0.018428983 -0.07388256
000150 e6 5e 3d 3d dc 0b 0e be 86 ab 5e be c8 ba a3 bd
       0.04623308 -0.13871711 -0.21745118 -0.0799461
000160 74 da ee 3d a2 6e 44 3d eb c6 4f be 6b ff f3 3d
       0.116627604 0.04795707 -0.20290725 0.119139515
000170 e7 20 3d 3d b3 8e 30 be 56 6f ae bd 27 ee aa 3d
       0.046173956 -0.17241935 -0.085173294 0.08346205
000180 1f 85 99 bd e2 0a 1f 3e c2 cf 7a 3e 5b 24 1d be
       -0.07496094 0.15531495 0.24493316 -0.153459
000190 a5 8d 47 3c fd fb be 3b 4b 4b 03 be d8 05 16 3e
       0.012179767 0.005828379 -0.1282169 0.14650667
0001a0 27 90 54 bd 5a f5 ae bd e4 52 f3 bd 4f a8 ad 3d
       -0.051895287 -0.08542891 -0.118810445 0.08479368
0001b0 c0 7f ba 3c 29 3c 91 bd c3 30 26 3e 80 f5 62 bd
       0.022765994 -0.07091553 0.16229539 -0.05540991
0001c0 13 c6 96 3d 2d e9 0d be 22 1b b2 3a 7b 02 93 bd
       0.073619984 -0.13858481 0.0013588408 -0.071782075
0001d0 88 e5 dd 3d 34 ee f7 3c 90 a9 99 3d bc 98 f2 3c
       0.10834795 0.030264951 0.075030446 0.029613845
0001e0 6f 9c 6f bd f8 d3 24 3d 6a ef c2 bd 1f f0 ba 3d
       -0.058498796 0.04024121 -0.09518321 0.09127831
0001f0 7e 4b 17 bd d2 0f b4 bb 7d 96 a4 bd ad 93 8b bb
       -0.03693723 -0.00549505 -0.08036516 -0.0042595477
000200 6f 3e cf 3d 55 3c 76 bb aa 6a 46 bd a0 ea 46 bd
       0.1011933 -0.0037572582 -0.048441567 -0.0485636
000210 0c b7 e6 bd ee d5 91 3d e0 91 2d 3e 73 f1 1a 3d
       -0.11265382 0.07120882 0.16950178 0.03782792
000220 6c d5 31 3d 66 ab 38 3b bd 20 30 be 5e 5f 39 3e
       0.043416426 0.0028178333 -0.17199989 0.18102786
000230 23 c3 30 bc 1f d3 23 3a 86 6e 1f 3e a3 f9 0d 3e
       -0.010788712 0.0006249416 0.15569505 0.1386476
000240 01 27 bc bc 55 8b ba 3d 5c ec fc bc ab cc f0 bd
       -0.022967817 0.09108607 -0.030874424 -0.11757787
000250 3d a6 9d 3d 04 c7 27 bd 15 b5 8a 3d 4b cb 1a 3d
       0.07697723 -0.04096128 0.0677282 0.03779153
000260 e2 4e 6d bd 9d 4e 76 bd c0 b7 73 bd 05 06 3e 3d
       -0.057936557 -0.060133565 -0.05950141 0.04639246
000270 42 75 59 bd fc bb 91 3d 55 21 97 3d 12 4a 85 3d
       -0.05309034 0.07115933 0.073794045 0.065082684
000280 4f fe 97 bc 6c d8 04 3c c1 7e 25 3e b2 19 48 3d
       -0.018553881 0.00810824 0.16161634 0.04885263
000290 7f bd 98 3d 1a 7d 15 be 9e 11 5b bd 11 04 08 bc
       0.074580185 -0.14598504 -0.053483598 -0.008301751
0002a0 1a 08 33 bd 3e a3 be bb d8 04 48 3c 4b 0c 3f 3d
       -0.043708898 -0.0058178 0.012208186 0.046642583
0002b0 60 f6 50 bd b5 4b 1e bd 64 fe 89 3d 81 90 48 bb
       -0.05101621 -0.03864642 0.06737974 -0.003060371
0002c0 72 83 85 3d 1f 0a dd 3d 52 97 30 3e 4e a6 30 be
       0.06519212 0.10792946 0.17245224 -0.1725094
0002d0 d4 6b 24 3d 5f 1c a4 bc bc 72 04 3b 77 d6 c8 bd
       0.040141895 -0.02003306 0.0020209989 -0.09806531
0002e0 e6 e2 8f bd 8d 22 cc bd 84 c6 63 bd 4f 8b 70 bd
       -0.07025699 -0.099675275 -0.05560924 -0.058726605
0002f0 8e ce 6a be af 14 04 3d 51 eb 45 3d 46 b6 9a 3d
       -0.22930357 0.032246288 0.04832012 0.07554297
000300 e1 8e f5 3d ed 93 14 be 63 57 0a be 79 9a b8 3d
       0.119901426 -0.14509554 -0.13509898 0.09013838
000310 ef 63 5c bd d0 d1 90 3d 0e 0f 73 be 21 1f 84 3d
       -0.05380624 0.070712686 -0.23736212 0.0645125
000320 eb 9c cb 3b a2 21 ae bd e9 99 04 3c d5 12 cb 3d
       0.0062137744 -0.08502509 0.008093336 0.09915701
000330 b9 73 14 bd b3 ef 5f bd 6b 65 55 bd 37 ff db bd
       -0.036243174 -0.054671954 -0.052098673 -0.10742038
000340 c4 c1 ad 3d da 51 18 be d9 34 85 bd ca e5 74 3d
       0.084842235 -0.14874974 -0.065042205 0.059789456
000350 bf f4 a7 3c cc 92 86 bd cd 5c 49 bd 5e 0c 8d 3d
       0.020502446 -0.06570968 -0.049160767 0.068871245
000360 a6 ec 21 3c ad 05 55 bd 5b 96 f1 3d 1c f8 94 bd
       0.009883082 -0.052007366 0.11796256 -0.072738856
000370 5b 78 a0 3c 48 a3 06 3e 29 59 02 3c d2 df e3 3d
       0.01958864 0.13148224 0.007955828 0.11126675
000380 fa 36 2d 3d 0a 62 52 3d 13 92 b0 3d 5f 0e fe bc
       0.042288758 0.05136303 0.086216114 -0.031012712
000390 19 9d 73 bd 2f c7 7d bd 81 46 62 3c b0 55 96 3d
       -0.059475992 -0.061957534 0.013810755 0.07340562
0003a0 ae 85 6a 3c e0 81 2c 3d 7c 71 5a 3d 7a 73 11 bd
       0.014314098 0.042116046 0.053330883 -0.035510518
0003b0 0f df c5 3c 22 06 b3 bd 79 b5 11 be 8d 72 e3 bd
       0.024154214 -0.08741404 -0.14229383 -0.11105833
0003c0 93 21 d7 3d 38 0a bd 3d ea 2c 01 bd a2 ed bd 3d
       0.10504451 0.09230465 -0.031536974 0.092738405
0003d0 58 33 16 3e d2 39 9b 3d a2 a2 99 3a 08 2d 4a 3d
       0.14668024 0.07579388 0.0011721442 0.04935935
0003e0 d6 2a cf 3d 9c 05 47 bd 1b e5 d9 bc 14 c7 3c bd
       0.10115592 -0.048589334 -0.026598504 -0.046088293
0003f0 48 c9 68 bd 52 30 e5 3d 89 e7 b8 bd 96 ff 7d bc
       -0.05683258 0.11190857 -0.09028537 -0.015502831

lin_m1.bias f4 [100]
000000 e1 5d f9 bc 4a 61 86 3d f0 b4 1f 3d a3 15 a3 bd
       -0.030440273 0.06561525 0.038990915 -0.07963111
000010 f8 b9 ae 3d 38 15 10 3e 50 88 6d 3d d0 72 49 bb
       0.085315645 0.14070594 0.057991326 -0.00307386
000020 a9 86 5c 3d ca 15 b9 bd 3d 5d a9 bb 30 b9 3e 3b
       0.05383936 -0.09037359 -0.0051685856 0.002910208
000030 34 f1 61 3d 3f f3 64 bd 76 0e ee 3b e2 f4 af 3d
       0.05516167 -0.05589604 0.0072649075 0.085916296
000040 78 d1 87 3d 9c 7a de 3c c4 40 9a bd 17 f8 a0 3b
       0.0663175 0.027158074 -0.07531884 0.004912387
000050 a1 92 a1 bd f7 b1 7b bd 5f 38 a9 bd 65 b8 99 3d
       -0.07889295 -0.061449017 -0.08262705 0.075058736
000060 58 08 88 3d 37 92 5a 3c be 91 f6 bc cb 58 30 3c
       0.066422164 0.013340524 -0.030098792 0.010763357
000070 8f 3e 1a 3e 65 a6 39 bb 0d 66 8a bc cd 42 84 3d
       0.15062927 -0.0028327939 -0.016894365 0.06458054
000080 52 e9 97 bc 9d bf ef 3d 5a 70 18 bd 5f 67 fa 3c
       -0.018543873 0.11706469 -0.03721652 0.03056687
000090 99 22 5b bc 76 30 39 bd 98 95 90 3b 39 16 b9 3d
       -0.013374948 -0.04521223 0.004412364 0.09037442
0000a0 b9 83 b7 bd 76 7d af 3d 34 63 8e 3d af 94 68 3d
       -0.08960671 0.08568852 0.06952515 0.05678242
0000b0 06 0e 7d bd 0b fb 85 bb 4a 02 23 bd 35 fd 02 3d
       -0.061780952 -0.0040887645 -0.039797105 0.03197976
0000c0 26 e7 b1 3d 97 8e 97 bc df 20 d0 bc 52 c5 ca bc
       0.08686666 -0.01850061 -0.0254063 -0.024752293
0000d0 a1 a6 2e 3c 71 19 1d 3e 52 60 34 3c 59 88 86 bb
       0.010659845 0.15341736 0.011009293 -0.0041056094
0000e0 bb df a4 bd fd a4 66 bd fa 00 a3 bd e4 08 85 3c
       -0.08050486 -0.05630969 -0.07959171 0.016239591
0000f0 44 98 62 bd d6 40 e3 bc d0 69 67 3d 18 1d 6f 3c
       -0.055320993 -0.027740877 0.056497395 0.014594339
000100 cb e0 0e 3d 0a 07 73 3d b8 23 11 3e e6 dd 1f 3c
       0.034882348 0.059332885 0.14173782 0.009757495
000110 23 fb 0c be de 80 b5 3d df 5d e5 3d 00 7c 80 bd
       -0.13767676 0.0886247 0.11199545 -0.06273651
000120 3d 98 02 3e 1b 3a 98 bc 40 31 a0 3b 0d e3 de bd
       0.12753387 -0.018582394 0.0048886836 -0.1088315
000130 22 cd f0 3d ff 7f 49 bc c7 99 21 3e cf bd 11 3e
       0.11757876 -0.012298583 0.15781318 0.14232562
000140 89 77 01 3e 98 c5 58 bc ba 65 60 3d 96 b6 9a bd
       0.12643255 -0.013230704 0.054784514 -0.07554357
000150 45 6c 08 be 8c aa 3c bd a3 0f d9 bc 68 24 46 bc
       -0.13322552 -0.046061084 -0.026496714 -0.012093641
000160 09 6e ac 3d cb b2 d9 3d 45 3a 81 3d f4 ee a9 bd
       0.08419425 0.10629805 0.06309942 -0.0829753
000170 9d 47 0e bc 2a bc 09 bd df ee 87 3d 09 76 e2 3d
       -0.008684066 -0.033626713 0.06637358 0.1105767
000180 1c e8 97 bd 65 a4 4d bb b3 84 7d 3d 29 68 13 3d
       -0.07417318 -0.0031378504 0.06189413 0.035988007

conv1.attn_l f4 [1, 3, 100]
000000 cf f3 61 3d c0 35 a6 3b c3 95 52 be 5a 8f 6e bd
       0.055164155 0.0050723255 -0.20564942 -0.05824218
000010 bc ad 86 3e 61 18 c9 bb 7f 29 2f 3d 69 28 20 be
       0.26304424 -0.0061369394 0.042764183 -0.15640415
000020 a2 63 c7 3d c9 46 83 bd 20 6a 5f 3e 96 8b 16 3e
       0.097358 -0.064099856 0.21817827 0.14701685
000030 0e 99 06 3d 97 42 a6 3d 85 b6 aa 3e a4 b9 05 bd
       0.032860808 0.0811817 0.33342376 -0.032647744
000040 91 a3 02 3d b1 44 05 3d e2 a1 1c 3e db 9b 00 be
       0.03189427 0.032536212 0.15296128 -0.12559454
000050 6b 48 9a 3d 51 b0 85 be bf 97 bc 3e b2 1b ee 3d
       0.07533344 -0.2611108 0.36834523 0.11626376
000060 cd 4b 91 bb 0f 76 3a be 05 55 ed bd 8e c4 e9 3d
       -0.004434085 -0.18209098 -0.11588482 0.11414443
000070 a2 c7 14 3c 9b a0 23 3e 46 bd ac bd 50 74 f6 3c
       0.009080799 0.15979235 -0.084345385 0.030084759
000080 07 39 30 3e bd 33 af bc 5f 08 a6 3d 2d 9e c0 3d
       0.17209254 -0.021386975 0.081070654 0.0940517
000090 b9 bb 08 bd c8 ef 9a 3e 9a ae 9e be c3 53 4b 3e
       -0.03338215 0.30261064 -0.30992585 0.19856171
0000a0 08 af c0 bb 20 b3 2a 3e 56 be 65 3d f0 72 12 3d
       -0.0058802404 0.16669893 0.05608972 0.035754144
0000b0 66 fa 96 bd e0 5a 41 be b9 fc b7 be 89 30 a7 3e
       -0.073719785 -0.18882322 -0.35935 0.32654217
0000c0 33 8b 12 be 53 f9 c8 bd 26 c2 56 bd a1 1b f7 3c
       -0.14310913 -0.0981318 -0.052431248 0.030164542
0000d0 55 09 2c be 61 7c 60 bd 1f f0 80 3d e5 21 30 be
       -0.16800435 -0.054806117 0.062957995 -0.1720043
0000e0 71 d8 0b be cd ff 9c 3e fb 4e e8 bd 98 77 3b be
       -0.13656785 0.3066391 -0.11343189 -0.1830734
0000f0 8c 9c b8 3d 47 75 eb bd 00 3a a6 3d 7a 7e 44 be
       0.09014234 -0.11496978 0.08116531 -0.19188872
000100 26 3b 70 3c fc b1 ef bd ec b0 83 3e 28 55 61 be
       0.01466254 -0.1170387 0.25720918 -0.22005141
000110 69 22 2f be 94 de 72 3e b9 8c 8a 3e 5d 40 92 bd
       -0.1710297 0.2371772 0.27060488 -0.071411826
000120 62 1f cb bd b9 4f b3 bd be 66 65 3e 58 bf 9b 3e
       -0.09918095 -0.0875544 0.22402474 0.3041942
000130 db 09 82 be 7d 51 3c 3e d0 92 93 bd 28 aa 7e bd
       -0.25398144 0.1839046 -0.07205737 -0.062173992
000140 81 29 d3 3d 90 17 fa bd e7 10 da bd 0c 49 91 3d
       0.103106506 -0.122115254 -0.10647755 0.07094011
000150 62 a9 b9 b9 6a 07 1f be 15 4f 1d 3e aa c3 f9 3d
       -0.0003541215 -0.15530172 0.15362199 0.12195523
000160 e9 f8 e4 3d f0 6c c7 3e c7 06 3f 3e 5b c2 0f be
       0.11180288 0.389503 0.18654929 -0.14038984
000170 ff 78 09 3d e8 e8 ee bd 7a cd 82 3d 27 86 22 bd
       0.033562656 -0.11665517 0.06386848 -0.03967872
000180 c6 5a 48 ba b5 3c 93 be 9b 07 a2 3e 7b 59 7c bc
       -0.0007642921 -0.28757253 0.31646428 -0.015402193
000190 e0 4c 78 bd 37 a7 37 3c 50 79 a9 bd d2 64 cc 3c
       -0.06062019 0.011209301 -0.08275092 0.024950419
0001a0 6c 6e 85 be 41 9c 9c bd 06 f6 08 3d 46 dd 80 3e
       -0.26060808 -0.076469906 0.03343775 0.25168818
0001b0 06 cc 3b bd 67 66 8f be 13 9e 95 be fc 00 57 3c
       -0.04584887 -0.28007814 -0.29222164 0.013122793
0001c0 38 40 e7 3d 6c 62 f7 bd 4f 4e 6a 3d 61 d8 0f be
       0.11291546 -0.12079319 0.057203587 -0.14047386
0001d0 86 1d b1 bc 89 35 dd bd 9a 08 98 bd 13 ae 59 3e
       -0.021620523 -0.10801227 -0.074235156 0.2125781
0001e0 c1 9a 76 3e 57 97 ec bc f7 ae db 3d 06 b6 84 3e
       0.24082471 -0.028880758 0.10726731 0.25920123
0001f0 63 b9 b0 3e e4 a1 01 3e 86 a1 ac bd 16 00 93 3d
       0.3451644 0.12659413 -0.08429246 0.07177751
000200 23 3e 9e bd 3b bb 16 3e 10 0c 15 bb ed f8 a2 bd
       -0.077266954 0.1471986 -0.0022742786 -0.07957635
000210 51 e5 51 3d 87 dd f8 3d 14 6e 82 bd 8e 81 84 bb
       0.051244084 0.12151628 -0.06368652 -0.0040437644
000220 81 fd b2 3c 07 27 3a be 8f 46 30 3e c2 4a 33 bd
       0.021849396 -0.1817895 0.17214416 -0.043772466
000230 8e ee 97 bd 12 31 22 3d aa ff 40 bd 44 58 7d bc
       -0.074185476 0.03959758 -0.04711882 -0.015462939
000240 f8 07 b8 bc d9 85 29 be 8f fc 35 3e f3 ad 53 bd
       -0.022464737 -0.16554965 0.17772125 -0.051679563
000250 ae e0 cd 3d 2b 6b 2f bd 44 7e 30 3d 6e 8b 21 be
       0.1005262 -0.042826813 0.043089166 -0.15775844
000260 3f 4d 86 3e e2 a5 a3 bc b1 f1 ae 3c 74 3c cf bd
       0.2623081 -0.01997656 0.021355482 -0.101189524
000270 27 c4 13 3e 23 93 29 3d b9 ed c2 3c e5 78 15 3d
       0.14430295 0.041400086 0.023794996 0.036492247
000280 78 74 1b 3e b6 1d 90 bd 4d d4 04 3c e2 c6 ed bd
       0.15181148 -0.07036917 0.008107257 -0.116101995
000290 6a 83 56 bd cb 09 a2 bb 34 ec f6 3d f8 df 6e bd
       -0.05237142 -0.004945015 0.12056771 -0.058319062
0002a0 90 d0 57 bd a5 61 f0 bc 4d 72 a3 3d 60 25 c6 3d
       -0.052689135 -0.029343436 0.079807855 0.096750975
0002b0 66 9f 03 3d ee d3 ab 3d 26 dd 43 be ba b8 05 3e
       0.032134436 0.08390032 -0.1912733 0.13058749
0002c0 75 02 69 bd f0 ba 4d 3d 0c b4 41 bd 4e e4 87 bd
       -0.05688711 0.050227106 -0.047290847 -0.066353425
0002d0 4c e8 d5 3d 33 75 ca bd 5b ef 39 3e 98 ef 8b 3e
       0.10444698 -0.09885635 0.18157713 0.27331233
0002e0 a6 2f 45 bd 7e 48 53 bd 93 1f 92 bd 34 9f 04 be
       -0.048141144 -0.051582806 -0.071349286 -0.12951356
0002f0 da 3c 54 3d a5 79 31 3e 47 36 de 3d 16 ec 9c bc
       0.051815845 0.1733156 0.10850196 -0.019155543
000300 7f 8a 67 be df 60 29 bd 17 6f d3 3d 5e 8d 7f 3d
       -0.22611426 -0.04135215 0.10323923 0.062390678
000310 cc 6b 95 3e 95 45 12 bd 5d 91 0d bd c2 a6 f3 bc
       0.29183805 -0.03571089 -0.034562457 -0.029742602
000320 b1 07 b9 3e 4f 50 b1 3e 05 f6 e2 3d 9e 33 3a be
       0.3613868 0.34631583 0.11082081 -0.18183753
000330 4e a1 f2 3e de c8 3b 3e 40 b6 dd be 9d 4d b6 3d
       0.4738869 0.18338344 -0.43303108 0.08901522
000340 ff b7 ab 3c 59 2e 58 be 4a 43 af 3d ae 12 9a 3e
       0.02096176 -0.2111143 0.08557756 0.30092376
000350 c1 36 93 3e e7 c1 96 3e 60 be 3e bd 20 60 85 be
       0.2875271 0.2944481 -0.046568274 -0.260499
000360 94 a4 c7 3e aa ae 31 bd 74 bc 15 3e 04 25 a6 3e
       0.3899275 -0.043379463 0.1462267 0.32450116
000370 42 9f 24 3e d1 e5 ef bd 5c 40 ff 3d ca 57 52 be
       0.16076377 -0.11713756 0.124634475 -0.20541301
000380 83 c2 40 3e 97 cd 81 3e 65 d1 6d be 73 4e 97 be
       0.188242 0.25352165 -0.23224409 -0.2955204
000390 69 6b 81 be 08 1f 71 bc b9 3c 28 3e 87 d8 0e 3e
       -0.2527726 -0.014716871 0.16429414 0.13949786
0003a0 56 f4 95 3e 80 25 83 bd f4 fc 55 3c 0d b5 3e bc
       0.29287976 -0.06403637 0.013060797 -0.011639846
0003b0 39 88 d1 bc 71 f3 ac 3d 3c 1b f0 3c 97 df bb bd
       -0.025577651 0.0844487 0.029309861 -0.09173506
0003c0 1c d5 71 3e 4c 5d 01 bd d1 18 9e 3e 42 77 b8 bd
       0.23616451 -0.031583115 0.30878308 -0.090071216
0003d0 5e c2 91 3e de 49 6c bd c1 1a 32 be 7f a7 0f bd
       0.28468603 -0.057687633 -0.17393018 -0.035071846
0003e0 5b 5a 14 be c9 13 3d bd 6a 39 d3 3c ae e1 81 3e
       -0.14487593 -0.046161447 0.025784213 0.25367492
0003f0 d9 f5 95 3e e5 38 50 be 8c f7 9f bd 75 41 11 be
       0.2928913 -0.20334204 -0.07810888 -0.14185126

conv1.attn_r f4 [1, 3, 100]
000000 44 23 0e be 8d 2b 7a bd 44 ea 67 3d 46 f9 a6 bc
       -0.1388064 -0.06107669 0.056619897 -0.020382535
000010 4f 0c 5b 3b e5 21 33 3e 9f 8d e3 3d df e4 33 bd
       0.0033424085 0.17493398 0.111109965 -0.04391944
000020 db be d4 3b 33 f7 04 3e c5 90 31 3e 1c 9c d9 bd
       0.0064924783 0.12984924 0.17340381 -0.106254786
000030 bd 07 8d bd ee aa 4e 3d 97 24 d5 3b 73 f0 9b bd
       -0.068862416 0.05045598 0.006504606 -0.076142214
000040 85 02 46 be 85 f4 cb 3b 2c 68 03 3e b2 74 17 bc
       -0.19336899 0.0062242174 0.12832707 -0.009244131
000050 1a e8 19 3e c2 49 f5 bd 9c 8f 4d 3e 08 6e a1 3d
       0.15029946 -0.11976959 0.20074314 0.07882315
000060 8a d5 c5 3c 8b ff 4d 3d 7d 81 bf 3e ea 91 9c 3d
       0.024149675 0.050292533 0.3740348 0.076450184
000070 c5 d1 76 3e 29 ed aa bd a0 e0 2f be 1b 67 8a bd
       0.24103458 -0.08346016 -0.17175531 -0.06757947
000080 37 11 21 3d ff ee c6 bc d0 c5 d7 3c df 65 bf 3d
       0.039323058 -0.024283884 0.026339442 0.09345602
000090 f3 37 3c bd 24 6a 2c 3e 55 48 be 3d cf ad 43 3e
       -0.045951795 0.16837364 0.0929114 0.19109271
0000a0 de 34 38 bd d2 c1 66 bd 23 a2 d4 3d e3 cf db bd
       -0.044972293 -0.056337185 0.103824876 -0.107330106
0000b0 4c 45 84 3c 32 2d e5 3d fd d7 59 be 83 a8 08 3e
       0.016146325 0.11190261 -0.21273799 0.13345532
0000c0 a0 98 04 be 0e 5e c0 bd 3b 07 e1 bd 0a 22 92 bd
       -0.12948847 -0.093929395 -0.10987707 -0.07135399
0000d0 eb ef f0 3c 76 99 1b 3d b4 6b c6 bd 26 ec 1a 3e
       0.029411277 0.03798815 -0.096885115 0.15129146
0000e0 a4 10 87 bc 32 e2 fe 3d 1d 7a e7 bd 4f 1e 2b 3d
       -0.016487427 0.12445487 -0.11302588 0.04177695
0000f0 57 44 03 3d 26 0f 0e bd ba 8b 11 3e 9f 1e 9c 3d
       0.032047596 -0.034682415 0.14213458 0.07623028
000100 98 19 b2 bc 9a 38 b0 bd 96 ff bb 3d da 3e 31 bd
       -0.02174072 -0.08604546 0.091796085 -0.04327283
000110 c9 bb 84 bb a6 2e b1 3d f4 4a 47 bd 18 72 8e 3b
       -0.004050706 0.086514756 -0.048655465 0.004347097
000120 8a 44 a3 bc d9 35 3b bd d8 eb 16 3e ee 62 78 3d
       -0.019930143 -0.04570565 0.14738405 0.06064122
000130 64 df a5 3c d6 da 5d 3e 1a 12 18 3e f7 5b ec bd
       0.020248123 0.2166551 0.14850655 -0.115409784
000140 fc ec 5e 3b 37 ff ab bd b1 6f 48 3d 82 eb 96 bd
       0.0034015765 -0.08398288 0.048934642 -0.07369138
000150 64 c2 ea bd ea 8e 97 3b 44 6d 19 3e c7 04 df bd
       -0.11462858 0.004625191 0.14983088 -0.10889583
000160 61 b5 46 3d 57 8b c8 bd e2 68 23 be 03 86 04 3b
       0.04851282 -0.09792202 -0.15957978 0.0020221479
000170 ac 1b 42 bd 7c 47 48 3d f7 41 7c 3d 42 0e 3f 3e
       -0.04738967 0.048896298 0.061586346 0.18657783
000180 77 1b cc bd ef ea 8b bc 2a c9 a7 bd d1 f6 d4 bd
       -0.09966176 -0.017079799 -0.08192666 -0.10398639
000190 4b bc fc bb c2 9d f0 bd cc 27 18 3e 5e ae f3 bd
       -0.007712876 -0.1174884 0.14858931 -0.11898492
0001a0 75 06 00 3e 9e 79 91 bc 4a 94 23 be 0d 96 b8 bc
       0.12502463 -0.017758187 -0.15974537 -0.022532487
0001b0 b7 8a 85 bd b3 4a 3c bc b9 23 8f 3d b8 3d 2b 3e
       -0.065205984 -0.011492419 0.069892354 0.16722763
0001c0 30 95 a7 3d 96 b0 8a bd f4 ad 07 be 26 b3 71 bb
       0.08182752 -0.06771962 -0.13249952 -0.0036880462
0001d0 86 63 29 3d 20 d3 ae 3d 87 68 b0 bb 22 93 26 3e
       0.04135468 0.08536363 -0.0053835544 0.16267064
0001e0 c7 67 02 be f4 9b 91 bd 73 56 96 3d aa d6 d8 3d
       -0.127349 -0.07109824 0.07340708 0.10587819
0001f0 d9 18 a1 3c 1f f3 38 3e 20 81 29 be 8d cb 7f 3d
       0.019665169 0.18061493 -0.16553164 0.06244998
000200 e6 14 02 be ee f7 16 be a8 09 3f 3d 70 c2 08 3c
       -0.12703285 -0.14743015 0.04664007 0.008347139
000210 0f 02 2a 3d f5 2e 68 bd 39 06 54 3d 33 5b ef bd
       0.04150587 -0.056685407 0.051763747 -0.11687317
000220 70 c7 29 be 56 5b 0c 3e 0f e7 9b be 44 56 c5 3d
       -0.16579986 0.13706717 -0.3044972 0.096355945
000230 08 f4 26 3e c8 f3 50 be 67 0a 8b 3e fd a0 60 3e
       0.16304028 -0.20405495 0.27156374 0.21936412
000240 27 36 52 3e c4 68 4f bc 4b ad ee 3d d8 47 62 be
       0.2052847 -0.012659255 0.11654147 -0.22097719
000250 58 96 dc 3d a5 58 1d bd 58 4a b6 3d d7 93 17 3c
       0.10770863 -0.038414616 0.08900899 0.009251556
000260 46 b7 b2 3b 88 ab b3 bd 9a dc b8 3d ad 18 a1 3d
       0.005453977 -0.08772951 0.090264514 0.07866035
000270 f5 b6 1e 3e aa e7 d5 bd 00 f2 95 bd 50 c8 d5 3b
       0.1549948 -0.10444577 -0.073215485 0.0065241233
000280 62 08 58 3e a6 66 30 bd b4 fd 36 be 2c 95 07 3e
       0.21096948 -0.043066643 -0.17870218 0.13240498
000290 16 16 4f be 04 8b 5b be e6 0e f1 3d a9 64 44 be
       -0.20223269 -0.21439749 0.1177042 -0.19179024
0002a0 f7 1e 17 3e 53 db ac bc 5e 8d 2c 3e 8b 15 3f bd
       0.14757906 -0.021100676 0.16850802 -0.046651404
0002b0 e3 e9 73 3d b7 b6 b0 3d 87 ed 37 be c3 c2 7c bd
       0.059549224 0.086286 -0.17961703 -0.061709177
0002c0 fd ef 26 3d 2a cf 8c bd 30 3f 2e 3d ba da f6 3d
       0.040756214 -0.06875451 0.04254073 0.120534375
0002d0 04 5f 02 bd 7a b1 46 3e 1d 84 ee bd 63 17 7c 3b
       -0.031828895 0.1940364 -0.11646292 0.0038466088
0002e0 2c c9 77 3d db de 05 be eb 2b e0 bc 28 31 9f 3d
       0.060494587 -0.13073294 -0.027364692 0.07773048
0002f0 52 80 aa 3d 17 3e 21 3d 1a f9 d6 bc 62 78 69 3c
       0.083252564 0.039365854 -0.026241828 0.014249893
000300 86 f9 0f 3d 84 29 ec bc 67 b0 8f 3d ef 3b d7 3c
       0.035150073 -0.02882839 0.07016068 0.026273696
000310 72 38 cb bd 4a 2c 0e 3d fd c9 8b be b4 4e 16 3e
       -0.099228755 0.034710206 -0.27302542 0.1467846
000320 10 bd 95 3d 24 43 c3 3d cb 5d b7 bd e9 a0 9c bd
       0.073114514 0.095342904 -0.089534365 -0.07647879
000330 19 ce df 3d 67 17 3e 3e d4 33 72 be 4b ee ed 3d
       0.10927982 0.18563615 -0.23652583 0.116177164
000340 b7 4f d6 bd cb ba 8f bb 2c 97 33 3d e8 16 3c 3e
       -0.10464423 -0.004386281 0.04384534 0.18368113
000350 88 2a 92 3e 29 66 8c bd 80 b9 c1 bd cd 84 4f be
       0.28548074 -0.06855423 -0.094592094 -0.20265503
000360 2d 63 a2 3e 7b fe a1 3d 9e f0 10 be 3a 78 46 3e
       0.3171629 0.079098664 -0.14154288 0.193818
000370 a2 37 81 bd 5a 46 bb bd e9 f5 e0 bd ce 54 db bd
       -0.06309439 -0.09144278 -0.10984404 -0.107095346
000380 c6 c3 41 3d f3 7d 05 3d b8 a7 d9 3d 42 14 77 3d
       0.047305845 0.032590818 0.10627693 0.060322054
000390 61 f5 3c 3d 08 cb 7b be 46 b8 b6 3d a8 bb 44 3e
       0.04613245 -0.24589169 0.08921866 0.1921221
0003a0 01 b0 cd 3d a4 77 26 bc 80 39 53 bc 34 01 0e 3d
       0.10043336 -0.0101603605 -0.012892127 0.034669116
0003b0 34 b6 14 be 53 de 58 bd 7b 3f 9e bd ac 64 f2 bd
       -0.1452263 -0.0529464 -0.07726952 -0.11835608
0003c0 d9 fd d5 3d 00 db da 3d 70 0e aa bc 2b e2 f4 3c
       0.10448808 0.10686302 -0.020758837 0.029893002
0003d0 ee 0f ef 3c 6e 97 86 3d 02 50 4a 3d 9b e6 c2 bd
       0.0291824 0.06571852 0.049392708 -0.09516641
0003e0 39 92 1b 3c a0 01 ae bd 0e 8f 37 3c ff af 8e bd
       0.009495311 -0.08496404 0.0112035405 -0.06967162
0003f0 52 b4 cc 3b 36 86 7a 3d 72 25 08 3e 4d 41 c4 bb
       0.006247082 0.06116315 0.13295534 -0.00598923

conv1.bias f4 [300]
000000 7e d4 c7 bc 8f ef 1f 3d d1 2a ac bc 28 00 72 3c
       -0.024393316 0.03904682 -0.02101651 0.014770545
000010 fe 60 34 3d a1 c2 84 3c 9e 91 14 3c 0c 14 4e bd
       0.04403781 0.016206088 0.009067921 -0.050312087
000020 24 fe 2d 3d e9 4e d4 3a b4 1b 81 3d 55 47 78 3c
       0.042478696 0.0016197833 0.06304112 0.015153726
000030 0b fb a0 3b 56 aa cb 3c e0 73 b0 3b dd f2 6e bd
       0.004912739 0.024861496 0.005384907 -0.05833708
000040 d8 bd 6b 3c 0f 18 9c 3b 35 ae 8a bb 41 e9 12 3d
       0.014388524 0.00476361 -0.004232193 0.03586698
000050 b4 2e a7 bc 6d 3b c6 3c a1 15 db bc 6d 74 26 3d
       -0.020408012 0.024198258 -0.026743712 0.040638376
000060 27 1d d5 3c a6 a4 14 3d 67 f4 5f bd 19 5b 11 3d
       0.026014877 0.036289833 -0.05467644 0.035487268
000070 1c 0c d5 3b 3f a0 3f 3d 8d c3 4c 3d 3f c3 36 bd
       0.0065016877 0.046783682 0.04999118 -0.044619795
000080 4a 9b e2 3c 40 51 87 3d 85 c4 2a 3d 6c bd 54 3d
       0.027661938 0.06607294 0.041691322 0.05193846
000090 3e cc 8d 3c aa 7a 30 bd 5d 82 f1 bc e6 75 94 3c
       0.017309304 -0.04308573 -0.029481107 0.018122625
0000a0 3f 1e 97 bb 43 d1 cf 3c 96 54 49 3d af fe 39 3c
       -0.00461176 0.025368338 0.049152933 0.011352225
0000b0 ca f5 9e bc 8a 55 a8 bb 81 27 31 bd 4f f9 3d bc
       -0.01940431 -0.00513715 -0.043250564 -0.011595084
0000c0 4a 24 06 3d 5e 63 13 3d 05 7a 35 3d b0 3b dc 3b
       0.03274945 0.035983436 0.04430582 0.0067209825
0000d0 76 c2 c5 3c 9e 2c 91 bc bb f2 1c 3d bd 78 33 3c
       0.024140578 -0.01772147 0.038317423 0.010954079
0000e0 2b 56 88 3c 93 78 25 bd 36 71 e3 bc 3f 44 8e 3d
       0.01664265 -0.04039819 -0.027763944 0.06946611
0000f0 4c c9 5f 3b 34 13 e5 3c 22 0e 2e 3d dc 7f 64 bc
       0.0034147082 0.027963258 0.042493947 -0.0139465
000100 0a 13 63 bc 3c 80 50 bd 40 ff 57 3c 86 f7 03 3d
       -0.01385952 -0.050903544 0.013183415 0.03221848
000110 bc 4c 91 3c d2 01 45 3c 34 ea 37 3d 29 e3 f5 3c
       0.017736785 0.01202436 0.044901088 0.030015545
000120 23 c8 71 bc 85 f7 31 3d e4 e2 05 3d 1e 28 1a 3d
       -0.014757189 0.043448944 0.032687083 0.037635915
000130 3b 15 09 bd b5 02 a0 3d d3 34 9d bb 58 a4 bc 3b
       -0.033467513 0.07813016 -0.004797557 0.005756896
000140 7b e5 b3 3c 20 6a 14 3c ca eb 2e bc 5f 18 ef bc
       0.02196001 0.009058505 -0.010676334 -0.029186426
000150 a5 cb 0b bd cb 3d 47 bd 12 10 17 3c ba 95 eb 3d
       -0.034129757 -0.048642915 0.00922014 0.115031675
000160 8f fd cf 3c c3 37 ca 3c b7 01 ab 3d 29 82 20 3c
       0.02538946 0.024684792 0.083499365 0.009796658
000170 a1 d4 0b bd c7 41 88 ba a2 a3 a8 3d 9c 13 62 3b
       -0.034138326 -0.001039558 0.082343355 0.0034496551
000180 81 af 3f bd 90 63 aa bc d9 59 03 3d 10 94 96 3d
       -0.046798233 -0.020799428 0.032068107 0.073524594
000190 a9 3b b1 bd a5 9c 00 3d cf af 83 bc 5e fb 1b 3c
       -0.086539574 0.031399388 -0.016075043 0.00952038
0001a0 a3 fc ff 3c 55 27 a0 bc 04 c6 40 bc c2 a2 d5 3b
       0.031248396 -0.019550005 -0.011765961 0.0065196464
0001b0 f0 b7 06 3d 57 43 9b 3b c5 8a 39 bd 02 2f cd bc
       0.03289026 0.004738252 -0.045298357 -0.02504683
0001c0 3a d9 4d 3d ec fa 00 3c bf 76 e6 3c 7f 28 23 3d
       0.05025599 0.007872324 0.028132794 0.039833542
0001d0 fd 28 83 3c bb ad af 3c e3 9b a3 bb 77 6d c7 3d
       0.016010756 0.021445146 -0.0049929484 0.09737676
0001e0 1c e2 ad 3c a7 76 26 3d 03 0b f3 3c 59 22 1e 3d
       0.021225981 0.0406405 0.029668337 0.038606975
0001f0 73 7a 97 ba 64 f8 42 3d 56 52 3c 3d 06 53 c1 bc
       -0.0011556878 0.047600165 0.04597696 -0.023599159
000200 ec ae 22 3d b9 cc c1 ba c4 4a 06 bd 53 18 b2 bb
       0.0397176 -0.0014785744 -0.032786146 -0.0054350286
000210 94 b5 a1 3c 89 98 36 3d 57 63 09 bc e8 05 6b 3d
       0.019739904 0.044579063 -0.008385501 0.05737868
000220 67 89 6a 3d a9 ba 02 bd 0e 3b 58 b9 f6 8c 8e bc
       0.057259943 -0.031916294 -0.00020621365 -0.0174012
000230 65 c7 d6 3c a9 f7 32 bc d7 06 0f 3d 40 c2 65 bd
       0.026218126 -0.010923305 0.034918632 -0.056093454
000240 7a 2e 2a 3d 5e 98 ad 3c 57 4d 83 3c b5 41 aa 3c
       0.04154823 0.021190818 0.01602809 0.020783285
000250 cd 6d 5a 3d f1 60 2c bd 71 b1 ba bc ac 12 ac bc
       0.05332737 -0.042084638 -0.022789689 -0.021004997
000260 50 ba 41 3d 1e 2b bd 3c 02 d8 d9 bd 7d 87 72 bd
       0.047296822 0.023091849 -0.10636903 -0.059211243
000270 6b c0 2e 3d 58 c7 54 bc 40 3d 3a ba f5 32 8c bd
       0.042663973 -0.01298698 -0.0007104464 -0.06845657
000280 6a b7 c8 bc d6 9c 12 bd 1c bc 60 bc 7b 3d 25 bd
       -0.024501521 -0.0357941 -0.013716724 -0.040341835
000290 9f 80 e7 3c b4 d0 05 3d 23 91 ca 3c 94 f0 8f 3d
       0.028259574 0.032669738 0.02472741 0.070283085
0002a0 bd 40 a8 3c e4 d1 c9 ba d6 9c b7 3c ba 2b 51 3d
       0.020538682 -0.0015397635 0.022413652 0.05106709
0002b0 23 7c 80 3d f8 2f 44 3c 04 16 df bc 2d d2 80 3d
       0.06273677 0.011974327 -0.027232178 0.06290088
0002c0 33 2c 36 bb 68 bd 36 3d 7d 95 71 bc d6 97 c6 bd
       -0.002779734 0.044614226 -0.014745113 -0.09696929
0002d0 89 9e 8a 3c aa 15 c0 bc fa 22 22 3d 41 b4 05 3d
       0.016921299 -0.02344783 0.039584137 0.032642607
0002e0 b4 65 2f 3c a6 72 f5 3c a3 ef bf 3c 1c 32 f6 3c
       0.0107054 0.029961895 0.023429697 0.03005319
0002f0 5a d1 b7 3c b8 87 e2 3b bf e2 24 3d 77 84 74 bc
       0.022438694 0.0069131516 0.040255304 -0.01492416
000300 19 fe b1 3c d6 51 8f bc c3 3e d6 bc ab bd 11 3d
       0.021727609 -0.017495077 -0.026152974 0.035581272
000310 75 a6 8b 3c 5e 3c 5f bd e4 0b 97 3c 9e 11 ff 3d
       0.017047146 -0.05450093 0.018438287 0.12454532
000320 33 8a 2f 3d c7 eb 34 3d 30 2d 94 3b ab d1 c2 bc
       0.042856406 0.044170167 0.0045219883 -0.023781618
000330 6f 5c eb 3c 8f 0f 64 bc c2 ee b3 3c 01 9a 68 bc
       0.0287306 -0.013919725 0.021964435 -0.014196874
000340 ed 43 92 3c c1 35 8c bc 08 5d 51 3d 74 83 95 bb
       0.017854655 -0.017115476 0.051114112 -0.0045627896
000350 d5 2b ea bb f8 ec 18 3d 03 45 92 3c 28 cb 7f 3c
       -0.0071463385 0.037335366 0.017855173 0.015612401
000360 bc 4e bf 3b fc de a2 ba 6c 12 21 3a 83 4a 1d bc
       0.0058382433 -0.0012426074 0.00061444077 -0.0096002845
000370 bd 96 87 bd d8 b5 b2 bb 67 91 26 3c 4a be 04 3c
       -0.06620548 -0.0054538064 0.010166503 0.008102009
000380 75 a1 02 3d b3 50 7d ba 7e 92 97 3c eb 00 25 3c
       0.03189226 -0.0009663209 0.01850247 0.01007102
000390 5f 7d ad 3b 36 fb dc bb fb 21 14 3d 50 e5 8c bc
       0.0052944864 -0.006743814 0.03616522 -0.017199188
0003a0 a4 02 d9 bc b7 19 39 3c a7 69 cd 3c f3 49 e4 3c
       -0.026490517 0.011297635 0.025074793 0.027867293
0003b0 8b 81 9e 3c 34 1f 47 3d c6 9b e7 3c af 70 24 3d
       0.01934888 0.048613742 0.02827252 0.040146526
0003c0 7a 29 30 3d 2a 7c 88 bc 6e 14 cf bb d7 79 20 3d
       0.043008305 -0.016660769 -0.006319574 0.039178696
0003d0 c5 3d 8e bc a3 e1 a1 3c 99 d2 2c 3d aa d2 72 3c
       -0.017363438 0.019760912 0.04219303 0.014820734
0003e0 d0 c3 7c 3c 44 29 d9 bc f2 f7 66 3d e4 64 c4 39
       0.015427545 -0.026508935 0.056388803 0.00037459203
0003f0 11 74 a9 bc 6a ad 62 bd 3d 23 65 bd d8 57 a9 3c
       -0.020685228 -0.05534116 -0.05594181 0.02067177

conv1.fc.weight f4 [300, 100]
000000 e2 ae e5 bc cb 89 95 3c f0 38 ec 3d 30 36 c7 3d
       -0.028037492 0.018254181 0.115342975 0.09727132
000010 2f 7d a5 3d 4b 5e 1f 3e 96 29 5d bd 75 cb d9 3d
       0.080805175 0.15563314 -0.053994738 0.106345095
000020 b0 b1 e9 bc 64 29 94 bc 03 97 9a 3d 99 49 27 3e
       -0.02852711 -0.018086143 0.075483344 0.16336669
000030 cd 4f 13 3e 2a 0a ff bd e2 bc db 3d b6 c0 cd bd
       0.1438591 -0.124531105 0.10729386 -0.10046522
000040 9b 6b b5 bd ec 74 53 3d 82 4f 93 bd 3f 4d e6 bc
       -0.08858415 0.051625177 -0.07192899 -0.028113006
000050 60 a7 5d 3d 1c f9 17 3d 15 88 0e 3e 65 e8 18 3e
       0.0541147 0.037102804 0.13919099 0.14932401
000060 db c9 94 3d 64 d0 81 3d 47 92 5b 3d cc a0 dc bd
       0.072650634 0.063385755 0.053606298 -0.10772857
000070 ec 52 5e bd b1 f4 00 3e d1 00 13 bd 8b ab 01 be
       -0.0542783 0.12593342 -0.03588945 -0.12663095
000080 53 f6 a6 3d f4 81 7f bd 2b 5f b8 bc f8 4c 76 bd
       0.08152451 -0.062379792 -0.022506317 -0.060131997
000090 40 48 59 bd a0 26 20 bd e7 a7 01 3d 32 1d 2c 3d
       -0.05304742 -0.039099336 0.031654265 0.04202003
0000a0 d1 0d b0 3d fd f3 89 bd 9f 71 15 be 8d fe 3d 3b
       0.08596385 -0.0673599 -0.14594124 0.0028990835
0000b0 06 9b 2d 3b 35 e1 6a bd 6b 0a 37 bc b7 a9 0a bd
       0.0026490106 -0.05734368 -0.011171917 -0.03385326
0000c0 0a f3 dd 3d 92 d1 ee bd 99 31 8a bc d8 ff 2d bc
       0.10837372 -0.11661066 -0.016869353 -0.01062008
0000d0 68 8d 11 3e 90 b1 53 bb f1 43 b4 bd 34 70 f5 bd
       0.14214098 -0.003230188 -0.08802021 -0.11984292
0000e0 30 4b 19 3e a1 aa 25 3e e2 9d 94 be 46 a7 0b 3e
       0.14970088 0.16178371 -0.29026705 0.13638029
0000f0 95 dc 82 3d 1e ea 14 be d3 5d e6 3c 0b e7 a9 3d
       0.06389729 -0.14542434 0.02812091 0.08296021
000100 77 bf 02 3e 91 69 22 3e 35 f6 cb 3c ee 34 cb bc
       0.1276835 0.15860583 0.024897674 -0.024805512
000110 53 3c a3 bd 95 cd ae 3c b9 79 f1 3d 31 1e 55 bd
       -0.0797049 0.021338264 0.11790795 -0.052030746
000120 97 aa ff bd 71 c5 8f 3e c4 0e 5a 3d a2 e9 cb 3c
       -0.12483709 0.28080323 0.053236738 0.024891678
000130 bc 20 0b be 24 4f 23 bc c6 d8 64 be ce 3c 1e be
       -0.13586706 -0.009967599 -0.22348318 -0.15452883
000140 4e ff f2 bd 34 01 2c 3e d4 f8 51 3e 53 57 da 3c
       -0.11865102 0.16797334 0.20505077 0.026652968
000150 84 76 b2 3d dd af a1 3d bf 10 4d bd ea 67 8c bc
       0.08714011 0.078948714 -0.0500648 -0.017139394
000160 ee a5 1b be 7d 6a c2 bd eb b9 40 bd 03 3e 25 bd
       -0.15200016 -0.09492967 -0.047052305 -0.040342342
000170 14 d9 1d bc 35 49 24 3d 25 8d bf ba b3 56 0f bd
       -0.009634275 0.04010888 -0.0014614208 -0.034994792
000180 b5 25 fc 3c 66 e1 11 3e 3e 68 38 bd 1d 78 1c be
       0.030779699 0.14246139 -0.045021288 -0.15280195
000190 4f ab b8 3d c5 4e 7f 3e 82 4e 10 3e b8 d6 fc bc
       0.090170495 0.24932392 0.14092448 -0.030864105
0001a0 cd ee dc bd 4a 30 3d 3c 90 8a 05 3b 64 f7 51 bd
       -0.10787735 0.011547158 0.002037678 -0.05126132
0001b0 66 28 03 be 1f 34 d1 3d 5a d3 06 bf c9 d0 40 be
       -0.1280838 0.102150194 -0.52666247 -0.18829645
0001c0 2b 73 fb bd 68 e8 c8 ba 71 c8 fc bd ef ae 73 bd
       -0.12277826 -0.0015328052 -0.12342919 -0.059493
0001d0 ef fb 91 be bb 6e 2d bf ff 8b 24 be 93 71 1b 3e
       -0.28512523 -0.67747086 -0.1606903 0.15180044
0001e0 a5 38 e4 bd 99 d4 7a 3d 85 bb f9 bd 77 25 1c 3d
       -0.111436166 0.061237905 -0.1219397 0.038121667
0001f0 24 e1 17 3e d0 19 4f 3d bf 54 1e bc d4 95 4a be
       0.14831978 0.050561726 -0.00966376 -0.19783717
000200 97 4a 7a bd 26 72 68 3d 6b 74 5f 3d 25 55 f4 bd
       -0.06110629 0.056749485 0.054554384 -0.119303025
000210 f7 78 33 3d 84 47 ad 3c 20 94 4e 3d b5 71 34 3e
       0.043816533 0.021152265 0.05043423 0.17621501
000220 e6 8d 4c bd 5f 7e a6 bd 87 d2 22 bc ac 81 e4 3d
       -0.049940012 -0.08129572 -0.009937889 0.111575454
000230 84 b4 3c be fe bb e2 bd 57 7c 65 3d 48 9d 82 bd
       -0.18428236 -0.11071013 0.056026783 -0.06377655
000240 c9 66 23 be bb 14 7b 3c 31 66 62 be 85 87 d2 3c
       -0.15957178 0.015324767 -0.22109295 0.025699386
000250 c1 f2 3e be 81 7e e7 3d 20 a5 06 be 45 ee 20 bc
       -0.18647291 0.113034256 -0.13148928 -0.009822433
000260 a1 d9 b0 be b6 68 d6 3d 62 74 4c bd 6d fa d9 be
       -0.34541038 0.10469191 -0.04991568 -0.42573872
000270 89 76 09 3d 13 1b 29 bd a8 0e 84 3d 6b 64 ac bd
       0.03356031 -0.041285586 0.06448108 -0.08417591
000280 8e 9e a0 be c1 80 85 3e 13 3f 73 be e4 11 48 be
       -0.31370968 0.26074794 -0.2375453 -0.19538075
000290 f8 6e 62 3e 85 20 bf 3c 97 63 ce 3d 9b a6 2d 3e
       0.22112644 0.023330936 0.10077589 0.16958086
0002a0 5f 82 d7 3d 8f 0f 6c bc 9d 44 e2 3d cd af 75 3e
       0.10522913 -0.014408006 0.11048243 0.23992844
0002b0 c0 b3 ef bd 70 6f 11 3e 60 f1 1b bc 1e 3f 63 3e
       -0.117042065 0.14202666 -0.0095179975 0.22192046
0002c0 37 03 4c 3e 35 96 67 be 6a 92 0b bd bf 94 47 3c
       0.19923101 -0.22615893 -0.03407518 0.01218146
0002d0 94 8a 1a 3d 95 78 21 bd 76 ff 99 39 cd 3f 5b 3e
       0.037729815 -0.039421637 0.00029372767 0.21411057
0002e0 7d e7 3a be b7 be a4 3c c5 b4 70 3a fa 5b c5 3d
       -0.18252368 0.020110471 0.000918221 0.09636684
0002f0 30 de 28 3d b0 4d d3 3c d5 06 0b 3e 0e 51 c5 3d
       0.04122752 0.02579388 0.13576825 0.096346006
000300 a8 25 07 bf 6d 37 a3 be 47 17 44 3d 4e 94 22 3d
       -0.52791834 -0.31878224 0.04787376 0.039692216
000310 e2 7e 03 be 53 e0 15 bd f1 55 79 3e 24 0d b0 3d
       -0.1284137 -0.036590885 0.2434919 0.085962564
000320 7f 80 60 be 53 6f 46 bc de 6a 15 3d 35 91 01 be
       -0.21924017 -0.012111503 0.03647887 -0.12653048
000330 8a 79 82 bc 1e fd 93 3d 16 fb 9b bd 2c 5b 9f 3d
       -0.015927095 0.07226013 -0.0761625 0.077810615
000340 4a d9 47 be 84 0d de 3d 77 54 ee bd 13 f6 fb bd
       -0.19516483 0.10842422 -0.11637204 -0.12302794
000350 39 22 19 bc 29 ff 16 be da 66 59 3e 24 fc 4b 3c
       -0.009346538 -0.14745773 0.21230641 0.012450252
000360 ff 4a a4 3d 8d 82 2b 3e 0c 4b 16 bd ef 95 22 3c
       0.08022117 0.1674902 -0.036692664 0.009923442
000370 ab 56 29 3d df c5 d5 ba 9f 85 e0 bd cd a9 36 3e
       0.04134242 -0.001630958 -0.10962986 0.17838211
000380 23 de 87 3e 36 24 5a 3e 40 4d 51 3e c0 e3 3e 3e
       0.26536664 0.21302876 0.20439625 0.18641567
000390 e1 4f 45 3e b9 bc 90 be ac 74 3f bd e8 51 fc 3c
       0.19268753 -0.28268984 -0.046742126 0.030800775
0003a0 32 de aa be 25 66 a3 bc 16 1c 29 3e f3 6c 18 3d
       -0.33372647 -0.019946167 0.1651462 0.037213277
0003b0 e8 5d d8 3d 0a ee 3e bc 5d d9 0b be d7 8e 07 bc
       0.10564786 -0.011653433 -0.13657136 -0.008273802
0003c0 61 d4 e7 3d 00 3c 9f 3b 8d d2 e6 3c 92 4f 3c 3c
       0.11319805 0.0048594475 0.02817657 0.01149358
0003d0 2a 25 17 3e ad 6f f2 3d 52 e9 4c 3d 2f 0f 84 3d
       0.1476027 0.11837707 0.0500272 0.064482085
0003e0 3c a1 17 3d 85 55 f9 3c 67 d4 e8 bc 3d 98 c9 3d
       0.037019 0.030436287 -0.028421594 0.0984349
0003f0 9b e6 a4 bd 30 1f 64 be c9 70 ab bd 62 98 80 3e
       -0.08051797 -0.22277522 -0.083711214 0.2511626

lin_hd1.weight f4 [100, 410]
000000 c8 31 b2 3c 89 a7 80 3d fb 0f 7b bc 51 a7 a1 bd
       0.021752253 0.06281955 -0.015323634 -0.07893241
000010 12 68 1f bd a2 4c 48 bc cc 04 a1 3d 75 59 f8 3c
       -0.03891761 -0.012225302 0.07862243 0.030316094
000020 cd d7 f0 3c dd a9 fb 3c 36 3b d7 bc 7f 6f 96 3b
       0.029399777 0.030720646 -0.026273351 0.004590928
000030 80 f9 ec 39 bf b2 76 bd 4d 64 01 bc 9b 78 75 bc
       0.0004519932 -0.06022906 -0.007897449 -0.014982368
000040 22 89 43 bc 70 9f 81 3c 19 f7 59 bc 27 88 e0 bc
       -0.0119345505 0.015823096 -0.013303542 -0.027408672
000050 93 15 0a 3c 96 61 6f 3d c3 9c cb bb ce 98 e1 bc
       0.008427995 0.058442675 -0.006213756 -0.027538683
000060 67 ad cd bc 88 65 b5 bc 2e 79 2a bd 9f 33 c2 bd
       -0.025107099 -0.02214314 -0.041619472 -0.09482502
000070 23 7d 0c bd ae 06 1b bd de e3 8f bd da 87 31 3d
       -0.034299027 -0.037848167 -0.07025884 0.04334245
000080 a6 9a 4f 3d 2e 7b 4e bd 92 29 5f bc 6c c7 14 bd
       0.050684594 -0.050410442 -0.013620751 -0.036322996
000090 be 52 31 3d 57 fc 91 3c 9a 7d 12 3d 72 55 8f bc
       0.0432918 0.01782052 0.035764314 -0.017496798
0000a0 46 b2 2b bd 7a 4d 56 bd 14 6a 66 3d 63 43 35 3c
       -0.04191806 -0.05231998 0.056253508 0.0110634295
0000b0 cc a2 c2 bd 34 ad 44 3d a7 ae 59 bc e2 74 43 3c
       -0.09503707 0.048016742 -0.013286269 0.0119297225
0000c0 a3 31 4a 3d ac 5d 22 3d 37 4b 6b bc fa 29 17 be
       0.049363744 0.039640114 -0.014361194 -0.14762107
0000d0 b0 03 3b 3d 30 1c 00 bd 58 d6 a4 bb 49 ce 07 3d
       0.045657814 -0.03127688 -0.0050304346 0.033155713
0000e0 a1 56 9a 3d b6 43 27 3d 7b 30 c9 bd 99 73 94 bb
       0.075360544 0.04083606 -0.098237 -0.004530382
0000f0 24 bb ad bd c4 ad 27 bc 87 65 47 3d 38 a4 5f 3d
       -0.0848296 -0.0102343 0.04868081 0.05459997
000100 90 07 33 bc b8 76 fd 3b 4d fb 6a 3c 7d db 7e 3d
       -0.010927096 0.0077350996 0.014342141 0.06222104
000110 0b da 88 bc d2 74 f0 bd f6 e1 c8 bd 55 c2 2e bd
       -0.016705533 -0.11741032 -0.09808724 -0.0426658
000120 70 6b 11 bd 51 d6 87 3d 0f 57 01 be c8 b3 d8 3b
       -0.03550285 0.066326745 -0.12630866 0.0066132285
000130 3b 26 22 bc 71 eb 11 bc a9 75 bc bd 5e e6 96 3b
       -0.00989681 -0.008906231 -0.092021294 0.0046050986
000140 45 35 9b bd 64 ea 9a bd 2c 91 23 3c 11 ea 84 3b
       -0.0757852 -0.07564238 0.009983342 0.004056223
000150 03 47 0b 3d 87 a0 56 3d 83 41 57 3d d8 f7 af bd
       0.03400327 0.052399185 0.05255271 -0.08592194
000160 65 f6 81 3d fb ee 7b 3d d3 61 a7 bc bd c4 01 bd
       0.06345824 0.061507206 -0.020432388 -0.031681765
000170 2d 67 74 bc 6e e5 f0 bb 3a 2b 7a 3d 39 3e ae 3a
       -0.014917177 -0.007351569 0.06107638 0.001329369
000180 09 46 8d 3b 37 84 3f 3d a7 7e 4e bd 32 23 38 3d
       0.0043113274 0.04675695 -0.050413754 0.04495544
000190 97 a8 f5 bd 64 6b 91 3b ef 6f 82 3e 13 db fe bd
       -0.119950466 0.004437851 0.25476024 -0.12444129
0001a0 a7 81 a1 be a9 da 8b 3e d5 00 9d bd f2 f3 9c be
       -0.3154423 0.27315262 -0.07666174 -0.30654866
0001b0 fe e9 12 be 6d 8d 86 3d 01 e5 0b bc d4 cf 9c 3c
       -0.14347073 0.065699436 -0.0085384855 0.019142069
0001c0 3d 89 0c be c5 47 5e bd 93 39 6f 3d e4 0c f4 bd
       -0.13724227 -0.054267664 0.058404516 -0.11916521
0001d0 09 24 a7 bd 25 23 2d bd e6 de 16 bd 55 bb d5 3c
       -0.0816117 -0.042269845 -0.036833666 0.026090303
0001e0 e7 48 d9 37 21 24 9f 3d 69 63 99 3c 77 60 33 3d
       2.5902364e-05 0.07770563 0.01872416 0.043793168
0001f0 6d 82 2f 3c f7 d7 01 bd c1 2a 3d bd b0 8b 3d bd
       0.010712248 -0.0317001 -0.04618335 -0.046275795
000200 19 33 ed 3c c0 ca 09 bd ee d3 e6 39 0f fd 06 bd
       0.02895503 -0.033640623 0.00044026918 -0.03295618
000210 ac 9c 74 3d cb e3 20 be 3c 28 8f 3d f0 db 9e bc
       0.059719726 -0.15711896 0.06990096 -0.019391984
000220 29 d0 92 bd 0b 42 8b bc 6f 3d de 3c c3 8b 1f 3d
       -0.0716861 -0.016999265 0.027128903 0.038951647
000230 aa 56 c0 3c ad 29 ac 3c 91 98 c6 3c da ac f6 bc
       0.023478825 0.021015966 0.024242671 -0.030111719
000240 55 d4 17 bd 32 c0 d4 ba bf 43 80 3d 77 84 d2 bc
       -0.03706773 -0.0016231595 0.062629215 -0.02569793
000250 ab e2 4f bc c3 32 5c 3d 03 d7 a3 bd 3f ce 0b 3d
       -0.012688319 0.053759348 -0.079999946 0.03413224
000260 33 a6 b0 3d 13 b5 b9 bb 56 94 87 3d 5d 44 d6 bc
       0.0862545 -0.0056673377 0.0662009 -0.026155645
000270 c0 47 82 3c 41 3c e8 3c 4a 06 74 bc 27 98 80 bd
       0.015903354 0.028349044 -0.014894078 -0.06279021
000280 df 5b af bc 0d 0b 00 3d 08 4b 07 be 80 a8 a7 bd
       -0.021406112 0.03126054 -0.13212216 -0.08186436
000290 c0 75 1d be c5 5e 78 bd a5 8b ba bc e8 95 cb 3c
       -0.1537695 -0.060637254 -0.022771666 0.024851754
0002a0 f1 98 87 bd 39 7c 24 bb 06 23 82 bc e0 3a 1c bd
       -0.06620968 -0.0025098457 -0.015885841 -0.038142085
0002b0 5b 9c fb 3c 17 7f c8 bd 7a a0 37 3b 2c 72 3a bd
       0.030714205 -0.097898655 0.0028019235 -0.04551904
0002c0 ea fc bc 3d 8b b7 bd bc 1c 33 43 3c 87 7f 2b 3d
       0.09227927 -0.02315881 0.011914041 0.041869666
0002d0 a7 21 13 3c b2 1c 15 bc d2 2d af 3d be 13 88 bd
       0.008980191 -0.00910108 0.085536614 -0.066443905
0002e0 b3 49 47 bb 34 83 18 3d 5d 60 b3 3c 01 55 87 3c
       -0.0030408918 0.0372345 0.021896536 0.016520025
0002f0 99 6c 1b bc 05 1b 5a bd bf 70 0b bd 94 02 7d 3c
       -0.009486341 -0.053248424 -0.03404307 0.015442509
000300 18 df c7 bd 32 ba 83 3d f2 71 b5 bc 83 03 08 bd
       -0.09759349 0.06431998 -0.02214906 -0.033206474
000310 c8 9f 5c 39 cc d8 0d 3e 40 3c 9f 3d a2 24 cb 3d
       0.00021040358 0.13852233 0.07775164 0.099190965
000320 1d 12 66 3b 1f 3b b5 bd ef 02 bc 3d c5 2f 0f 3d
       0.0035106011 -0.08849167 0.09180247 0.034957666
000330 17 bb 91 3c d1 19 77 3b 3b 9a ba 3c 5f 05 04 3d
       0.017789407 0.0037704597 0.022778621 0.032231685
000340 f8 cf a8 3c 60 27 8f bc d3 7c b9 bc 5c b9 96 bd
       0.02060698 -0.01747483 -0.022642529 -0.07359573
000350 1a c7 e2 bc ee 78 b4 bd f9 69 94 3c c3 c4 d8 bd
       -0.02768283 -0.08812128 0.018116938 -0.10584404
000360 10 4a 27 bd c2 cc 6b 3d f6 f7 cd 3d e4 18 b1 bd
       -0.040842116 0.05756832 0.100570604 -0.08647326
000370 e4 03 1c 3d 51 74 8d 3d d9 54 63 3d 59 ec ba 3d
       0.038089648 0.06906951 0.05550084 0.09127111
000380 6c b6 9f bc f8 e5 46 bd 6a 3f cb 3e af 3d a5 bd
       -0.019496165 -0.04855916 0.3969682 -0.08068406
000390 21 a7 3e bd 33 f4 0a 3e 42 9b 16 3c 79 79 7e 3e
       -0.046546105 0.13569717 0.00919229 0.24851026
0003a0 75 4e 81 bc 93 3d 25 bd 76 09 a0 bc 52 9a d4 bb
       -0.015784482 -0.040341925 -0.019535761 -0.006488123
0003b0 3d 6b 79 bc 62 04 9a 3c 25 9f c8 3c ec 6c 30 3c
       -0.0152233215 0.018800918 0.024489949 0.0107681565
0003c0 80 5f 96 bd 1a 24 e9 bd 24 9d 8e bd 2e cf e4 bc
       -0.07342434 -0.11383839 -0.06963566 -0.027930822
0003d0 cd 55 15 3c b9 65 5e bd 6b da 89 bc 3b 2e 3a 3d
       0.009114695 -0.05429623 -0.016827783 0.045454245
0003e0 1c a9 24 bd 23 64 98 3b 09 9e 94 3d 18 3c 36 3a
       -0.040200338 0.004650609 0.07256705 0.00069517037
0003f0 4b c1 8f 3d bb 6a 71 3c cc 55 87 3d 2b 32 5b 3c
       0.070192896 0.014734919 0.06608161 0.01337866

lin_hd1.bias f4 [100]
000000 d4 ba 10 bc 8f f7 e1 3b 02 48 be 3c 86 b7 3d 3d
       -0.008833606 0.0068959664 0.023227695 0.0463176
000010 83 39 5c 3d 75 82 17 3b d2 4b 66 3d a6 af b5 3b
       0.053765785 0.002311853 0.05622465 0.0055446206
000020 af 73 8c 3d 56 d6 f7 3b cf 30 eb 3b 66 3f 2f bc
       0.068580024 0.0075633926 0.0071774493 -0.010696268
000030 20 a0 f4 3a 61 09 8e 3c 5e 16 4a 3d c1 72 5e 3d
       0.0018663444 0.017338457 0.049337737 0.054308657
000040 85 f0 51 3d 7f fd 80 3d 5b 65 5d 3d f2 58 52 3d
       0.051254768 0.062983505 0.05405174 0.051354356
000050 63 a2 01 3d c6 8b 36 bd 9b 6e 16 3d 9f 8d f7 3c
       0.031649005 -0.044566892 0.036726575 0.030218897
000060 d1 af a7 3c 7d 2f 42 bc d7 cd 71 3c 87 e8 44 3d
       0.020469578 -0.011852142 0.014758549 0.048073318
000070 7f 5a df b9 35 6b 64 bb 88 34 32 3d 34 75 24 3d
       -0.000426013 -0.003485394 0.04350713 0.040150836
000080 6b c1 31 3c 2c 99 7b 3d fe 0d 57 3c c1 7e c7 3d
       0.010849337 0.061425373 0.013125895 0.09740973
000090 90 f4 1b 3d 9f c9 75 3c b9 2d 69 3c f2 31 f1 3c
       0.03807503 0.0150016835 0.014232093 0.029442761
0000a0 aa 51 c7 bc 84 51 0c bd e1 a3 03 3d ae c4 8b 3d
       -0.024330933 -0.034257427 0.03213871 0.06824623
0000b0 09 e4 19 3d 44 b1 96 3d 20 8c 10 bd 93 53 53 3d
       0.037570987 0.073580295 -0.035289884 0.051593374
0000c0 da 44 77 3d 4f fc 04 bd 8e 64 99 3d d6 5d 15 3d
       0.060368396 -0.032467183 0.074898824 0.036466442
0000d0 fe c3 4d 3d 42 46 7b bd 18 52 57 bb e5 75 43 3b
       0.05023574 -0.0613463 -0.0032855328 0.002982491
0000e0 3c a5 67 3d 74 9b 9a 3d 91 d3 e4 3c 5e f1 c7 bb
       0.056554064 0.075491816 0.027932914 -0.0061017713
0000f0 29 76 21 3d a9 26 61 3c 15 a0 04 3d 01 74 ad 3d
       0.039419327 0.013742127 0.03237923 0.084693916
000100 b3 3f 09 3b be c8 dc 3c e5 dd dd bb 0d 1e 19 3d
       0.0020942509 0.02695119 -0.0067708367 0.037382174
000110 b7 33 9f 3d 16 4d 6c bb 89 06 05 3d bc bf 18 bc
       0.07773536 -0.003605669 0.032476936 -0.009323057
000120 eb 3f a5 3d 1b cc 4b 3c d9 38 9b 3c c5 ae ad bc
       0.08068832 0.012438799 0.018948006 -0.0212015
000130 45 5d 96 3d 20 24 e0 3c cd 74 cb 3b 4a 37 d0 b8
       0.073420085 0.027360976 0.006208992 -9.928511e-05
000140 cd fb 60 3d 80 39 95 bc 83 fa 68 3b 12 d9 52 3d
       0.054927636 -0.018215895 0.0035549707 0.051476546
000150 bf 15 e9 bb db ab d4 3c 2d e5 87 3c cc 94 0d 3d
       -0.007113188 0.025960853 0.016588772 0.034565732
000160 a5 86 9b 3c 15 40 e9 bb 36 52 0a 3d 2b f0 f2 3b
       0.018985102 -0.007118235 0.03376981 0.007413884
000170 7c dd 6f 3d 5b fe 38 3c 94 a6 2f bc 96 ee 84 b9
       0.058560833 0.011291112 -0.010720868 -0.00025354762
000180 c1 63 ac 3c b5 ef a8 3c e2 e1 37 bc 68 ed 17 3d
       0.02104366 0.020622114 -0.011223288 0.037091643
